backend/dkt_trained.pt (torch, 83205 bytes, 5 tensors)

lstm.weight_ih_l0 f4 [256, 12]
00000000: a027 c6bd 161b fb3c a054 f33c f131 113d
00000010: f038 5dbc 3266 f23d fb25 8f3c 9a54 b9bd
00000020: fdb6 bf3d 3c15 c73d 34ee a5bd ec86 1f3d
00000030: f0c9 debd d8e1 dc3d fe93 cabd 1f0a 28be
00000040: 20b5 513d e079 d03c 1994 19be d0a5 c13d
00000050: 36b1 763d 00ab 2bbc 96b1 9a3d 26a6 1b3e
00000060: 7ef4 d4bd 4482 b6bd ee03 ed3d 9710 5cbd
00000070: bcbd 8dbd 4a8f f73d e7e6 e93c e236 d1bd
00000080: b994 673e 6ae2 f33d 28a7 803e 178d 873d
00000090: d8ba 07bd 7cad 21bd c000 d6bd 540d bfbc
000000a0: 48d9 adbd cafa b3bd 9a78 acbd da54 a9bd
000000b0: df4d 863e bef9 8abd 2419 d73d b052 ea3d
000000c0: 28d4 c63c 339f 8d3e 2ab1 c63d d8ac 373d
000000d0: 20de 7a3c 3e0b b6bd 53d5 f23c 880b fc3c
000000e0: 76b5 a33c 406a a63b 2481 4dbd a0b9 023e
000000f0: e83f 963d 88c3 90bd a0fa d53b 729a 5ebd
00000100: c8ce 323d 14cd 6e3d 9d75 873e 84fb cf3d
00000110: 57c8 af3d d80d 803d f96e 433e 4aee 103d
00000120: e4fb ce3d cddf 1b3e 2a55 8d3d f2b4 543e
00000130: b291 dfbd accd 4f3d 1826 043e cc29 5a3d
00000140: 3731 84bd 9ee0 fdbd 745c f7bd 01a0 94bd
00000150: 588e a6bd b30b ae3d c065 0bbd 5f76 783e
00000160: 6c94 b63d a0fb a43d bf06 d23c f885 a5bc
00000170: 7256 0bbe e8a7 533d d108 72be 45af 48bd
00000180: 3052 04bd 6ac2 3dbd 72ba 903d 767f 06be
00000190: 9cdb 9dbd 78a6 9fbc 75ba f73d 6064 bebd
000001a0: e855 4a3e 907c 28bd 97a1 3d3d bf11 553d
000001b0: 6c28 6abd 943f e8bb 8010 20bd a876 4bbd
000001c0: 8c00 d13d 54e9 ecbd 2440 c9bd 4671 b33d
000001d0: a8fa 643e 906a 2f3d c3e3 1d3c 0cc4 903d
000001e0: 4c43 c6bd f4dc dbbc f6b5 ffbd e7da 1bbe
000001f0: a064 b0bc 7037 3c3d ea3f 00be 08eb d23d
00000200: acb4 1c3e a43a 5cbd 5c86 4a3e b364 813d
00000210: 0470 f63d 1e35 87bd d2be 9abd 6609 2ebe
00000220: 64db 3a3d 3ef0 fbbd 0580 e8bd 8822 903d
00000230: 14e4 4a3e 302b ac3d a0a9 bb3c 9f56 033e
00000240: ae8d 943d 819f ac3d 349c 053d fc82 583d
00000250: 987f cbbd 00e0 d6bb 1936 92bd be30 bfbd
00000260: d785 513d 1cd0 c0bd 6f1e 013e a2e1 a13d
00000270: 8062 8bbb d91f 583e 9884 b93c d9e2 eb3d
00000280: 4082 67bb f4de 5f3d 2516 bf3d 7851 b13d
00000290: e098 2bbd a8df 20bd 049a 953d 395f a3bc
000002a0: 9ced 6c3d 8028 a13d 667a cbbd d65e 34be
000002b0: d46f 62bd 68bf cf3c 88a8 2ebe 8467 363d
000002c0: 08c8 7b3e a084 033d a335 7bbd 3026 cb3d
000002d0: 56fc f4bd cab2 36be 7057 133c c9ff 49be
000002e0: 960f f1bd b483 e7bd ac23 d0bb 100d 71bd
000002f0: 7bc8 313d 3610 c23d 51b8 bf3d 88f3 0a3a
00000300: 4818 dfbc 3a46 14be 783a 493d 6b56 27bd
00000310: e614 dbbd 1290 abbd 2902 fbbd 709e e6bc
00000320: 77ce 433e aa54 b93d cdb6 4c3e f5a8 c43d
00000330: aa81 c4bd 3773 5b3d acf3 bd3d 9bcb 0d3d
00000340: 90f3 803c 80cb bc3c 3b0a e7bd 72b0 8a3d
00000350: 4282 8d3d 260f f8bd 31ba 133e 8394 3f3e
00000360: 54d4 96bd c024 ca3a 6e02 8c3d afed 4dbe
00000370: e8fd 40bd 9085 343c 4065 723d 70c7 8f3c
00000380: 2e0c 933e 58a7 c9bd d6d4 a43d 8ebd 733e
00000390: 800d e23d efbb 853d 044b ccbd 4af8 06bd
000003a0: d63c d8bd dcd1 1c3d 5605 bf3d e85f 113d
000003b0: 01da 7d3d ac40 22bd 3292 9d3c 865f d13d
000003c0: 9493 703d 68b1 d53d f09d 383d 8e54 1abe
000003d0: 72a2 84bd 70b6 aebd d613 e5bd 80cd 2f3c
000003e0: 0599 2b3d 2873 6dbd 65d9 813e 5cd8 893c
000003f0: 6043 803d 5824 cdbd f028 05bd cdfc e9bc
-0.096755266 0.030652564 0.029703438 0.03544802 -0.0135023445 0.118358985 0.017474165 -0.090493396
0.09361074 0.09720847 -0.08102074 0.03894703 -0.1087836 0.10785264 -0.098915085 -0.16410111
0.051198125 0.02544874 -0.14997901 0.09455454 0.060227595 -0.010477781 0.07553403 0.152001
-0.10398196 -0.08911565 0.11573015 -0.05372676 -0.069209546 0.12087877 0.028552486 -0.10215546
0.22615327 0.119084194 0.2512753 0.066187076 -0.033137172 -0.03947209 -0.10449362 -0.023321785
-0.08488709 -0.087880686 -0.084214404 -0.08268137 0.26231286 -0.06785916 0.10502842 0.11441553
0.024271086 0.27660522 0.0970176 0.04484257 0.015311748 -0.08888863 0.029642737 0.030767217
0.019983988 0.005078584 -0.050171986 0.12766123 0.07336408 -0.070685446 0.006530121 -0.05434651
0.043654233 0.058301046 0.2645692 0.10155395 0.08583134 0.062526405 0.19085301 0.0353835
0.10106638 0.15222092 0.069010094 0.2077215 -0.10916461 0.050733253 0.12905157 0.053262517
-0.064546995 -0.12396358 -0.12078181 -0.07257081 -0.08132619 0.08498325 -0.034032583 0.24263905
0.08915028 0.08055806 0.025637982 -0.020205483 -0.13607195 0.0516738 -0.23636176 -0.048995275
-0.032304943 -0.046327986 0.070668116 -0.1313456 -0.07707903 -0.019488558 0.12096111 -0.09296489
0.19759333 -0.041134417 0.046296682 0.052018877 -0.057167456 -0.007087657 -0.039078236 -0.049673706
0.102051824 -0.11567941 -0.09826687 0.087618396 0.22361243 0.042826235 0.009636822 0.07068643
-0.096808046 -0.026838757 -0.12485878 -0.15220223 -0.021532357 0.045951307 -0.12524381 0.10298735
0.15303296 -0.05376686 0.19777817 0.06318035 0.12033084 -0.06601928 -0.07555927 -0.16995773
0.045619383 -0.12301682 -0.11352543 0.07037836 0.19813567 0.08406675 0.022908032 0.12826012
0.07253586 0.084288605 0.03261967 0.05285929 -0.09936446 -0.0065574646 -0.071392246 -0.09335469
0.05115303 -0.09414694 0.12609266 0.07904364 -0.0042536855 0.21105899 0.022646233 0.11517877
-0.0035325438 0.054655984 0.093303956 0.08658117 -0.04189384 -0.039275795 0.07304767 -0.019942867
0.05784379 0.07869053 -0.09935455 -0.17614302 -0.05528243 0.025359824 -0.17056477 0.044532314
0.24588025 0.032108903 -0.06133045 0.09919393 -0.11962192 -0.1784164 0.008993015 -0.1972648
-0.11770551 -0.11304417 -0.0063519087 -0.058850348 0.043404084 0.09475748 0.093613274 0.0005300571
-0.027233258 -0.14479914 0.049128026 -0.0408539 -0.106973454 -0.083770886 -0.122562714 -0.02815172
0.19121729 0.090493515 0.19991608 0.096025385 -0.09595044 0.053576674 0.09274992 0.034618
0.01574114 0.023046255 -0.11281248 0.067719355 0.0690961 -0.12112264 0.14426495 0.18708996
-0.07364717 0.0015422329 0.06836401 -0.201102 -0.047117144 0.011018172 0.05917859 0.017551154
0.2872023 -0.098463714 0.08048408 0.23802778 0.11037731 0.06529986 -0.099752456 -0.03295163
-0.105584785 0.038286075 0.093271896 0.035491854 0.061975483 -0.039612457 0.01923475 0.10223298
0.05873449 0.10434228 0.045072496 -0.15071318 -0.064762965 -0.08530891 -0.11185424 0.010730147
0.041893978 -0.05797115 0.2536117 0.016826801 0.06262851 -0.10016698 -0.032509744 -0.028562928

lstm.weight_hh_l0 f4 [256, 64]
00000000: 0535 25bd 3d6d cc3d 564e fcbd ced8 1ebd
00000010: 348a ba3d 45c4 fcbd 4e95 603d 906f 23be
00000020: 8004 25bb d729 393e d791 6ebd ed54 843d
00000030: 86b0 7abc 6fd9 38bc e3a6 343c 42f3 21be
00000040: 0a3c d4bd 4624 2a3e bb38 d7bd e39b 073e
00000050: 0186 5d3e e45e 1c3d 7ef9 3ebd 15e7 c73c
00000060: 881b 8fbe ce8b 06bd 7ac4 efbc 02d2 fcbc
00000070: 2931 dbbd 4f5b 413d c289 3bbd 2991 14be
00000080: d4f2 123e 469c f43c 6082 4e3d d972 fbbd
00000090: 8c9f 1bbe 018e 473e 3650 5e3d 7bc9 17bd
000000a0: e6e6 21bd c798 23be c9a2 df3d 0696 16be
000000b0: d570 143e 42ea f7bb 04b4 d0bc 3c2d 6fbe
000000c0: 7e36 49bd 165d 84bb 1435 fabd a1aa 223d
000000d0: 645b 3fbe 9311 72bc f581 233e afc7 583e
000000e0: dea4 993d 9fc0 14bc a085 253e e1df cabd
000000f0: 1d44 df3d 6811 8ebc 6e92 79be 2498 2bbe
00000100: 34e2 283e 63a8 593e 572d 8bbd 7c8a 213b
00000110: 2754 87bd 615b 0a3d 0c40 e33d aa6c 01bd
00000120: 15d7 b4bb be5a 4d3d b219 583e 95d2 cd3d
00000130: 1606 983d fb00 13be 410e 09be 83b4 75bd
00000140: f489 61be b8a1 4a3d e870 85bc c5db aabb
00000150: 533f a93d 5c3a 20bd be21 6a3d 3e02 693d
00000160: c1eb a0bd 4724 44be ccdb 1f3e 3aa4 b2bd
00000170: 97a6 723c 5f83 133e be68 eebc d563 dbbc
00000180: a6c6 d03d 7136 82be 084e 2dbe bc72 1ebe
00000190: 1f14 18be f854 643e a221 973d 5778 c1bd
000001a0: 4ce1 773e 6c3c 75bd 360c 9bbc a729 913d
000001b0: 2619 3d3e a217 353c 5cb5 653e 6169 17be
000001c0: 49c9 463e 4863 07be c0e6 0a39 00cc 4538
000001d0: 68f4 0bbd eba2 32be 27d4 8bbc 9e40 133e
000001e0: 9c35 2ebb ec30 c9bd 9df2 433e 14ed 73be
000001f0: e48e 99bd 91b1 67be b2ed d13d 1e13 2cbe
00000200: 26ef 6d3e 9aab 393d d2bd c9bd 53ec d03d
00000210: 0128 bebd b595 19be 7f71 4b3e 351a e1bd
00000220: f250 91bd 02a0 853d 7767 f63d 2c03 3e3e
00000230: 083d 013d 1ca7 c2bd 782f 42be b85e 3ebe
00000240: 993b e1bd 391b c63d 36b0 443c 92ba 73bd
00000250: f566 a23d 20fa e2bd c3b0 883e 3ee2 c63d
00000260: 4fa8 b2bd 2abc 29be a5cf 7f3d 702f 21be
00000270: fbbc 053d e2e9 283d ba5e 04be 39cc 5bbd
00000280: b4d3 35bb 46a0 8fbd 0636 58bd cf51 f1bd
00000290: 7eb7 d13c 25ec 023e 6c60 c13d 0ce2 90bd
000002a0: 5690 753d cf2a 8abe 6000 c63d 42c1 2f3d
000002b0: 301b 2c3e c99d 5d3d 0c95 863e aa1d 013d
000002c0: 1417 cf3d dc28 c0bd dfdb 13be 1008 c83d
000002d0: ee00 92bd d2e3 dbbd 7653 243d 0e9e 1f3d
000002e0: 4647 643e 1e7d 00be 4e5c ec3d 18c9 41be
000002f0: ceca 853c a13d 4ebe fa2c 21bc 0b17 16bc
00000300: ee2a aa3d 4b7c 3d3e 9b2f f1bd 372c d53d
00000310: 10f2 d2bd 0d6f 263e c049 8b3e a805 1dbe
00000320: 49f6 d53c 9081 8b3e ea26 673e bb4e 0c3d
00000330: ce4f 853d 4abf 75bd 78ac e6bc 1f46 bdbd
00000340: d000 9abc c77b 763e e4c8 603c 0e8b 9e3c
00000350: 418d 3d3e b76c 833c 5428 403e 13a1 383e
00000360: 0a37 c6bd b21d d6bd 3b2e 133d 2ef9 98be
00000370: 0f20 f7bd 5963 d4bd 24cf 9abc 4c6f 013d
00000380: a565 923d 23db 4cbe aa9c 49be da52 34be
00000390: f7fe 10bd a9a2 913d b4ca a73d 1b74 0f3d
000003a0: 8e94 943d 0c97 af3c fe3c fa3b b575 0b3e
000003b0: 364e c33c 6fc1 c13a 063f 4e3e 24c4 ccbd
000003c0: bd45 0b3e 7ec8 82be de57 a9bd 1921 3e3e
000003d0: c4f7 403c a0a6 62be 565c 3c3d 4b46 5d3e
000003e0: fc37 343d a5b2 88be e87c 683e 14a5 e6bd
000003f0: c18f 16bd 0a12 1dbe 25fd 4c3e 86b8 9a3d
-0.040333766 0.09981773 -0.12319629 -0.03878098 0.091083914 -0.12342123 0.054829888 -0.15960526
-0.0025179684 0.18082367 -0.058244552 0.06461511 -0.0153008755 -0.011282309 0.011026117 -0.15815452
-0.10363014 0.166154 -0.10508867 0.1324306 0.2163315 0.038176432 -0.046624653 0.02440218
-0.27950692 -0.032848172 -0.029268492 -0.030861858 -0.10702736 0.04720622 -0.045785673 -0.14508499
0.14350444 0.029859673 0.050417304 -0.12277765 -0.15197581 0.19487764 0.054275714 -0.03705738
-0.039526843 -0.15976249 0.10919721 -0.14705667 0.14496167 -0.0075657675 -0.025476463 -0.233571
-0.049124233 -0.004039417 -0.12217155 0.039713506 -0.18687207 -0.014774698 0.15967543 0.21169923
0.07502149 -0.009079128 0.16164255 -0.09905983 0.109016635 -0.017342284 -0.24372265 -0.16757256
0.1649254 0.2125564 -0.06795757 0.0024649194 -0.06607848 0.033778552 0.110962 -0.03159777
-0.005518804 0.050135367 0.21103552 0.10049931 0.07423036 -0.14355843 -0.13384344 -0.059986603
-0.22025281 0.049470633 -0.01628919 -0.005214187 0.08264031 -0.039118156 0.057161085 0.056886904
-0.078574665 -0.19154464 0.1561119 -0.0872273 0.014810226 0.14405583 -0.02910268 -0.026781002
0.10194139 -0.2543216 -0.16924298 -0.15473455 -0.14851426 0.22298038 0.07379462 -0.09446781
0.24207038 -0.059872076 -0.018926721 0.07088023 0.18466625 0.011052998 0.22432464 -0.14786293
0.19412722 -0.13221467 0.00013246667 4.715845e-05 -0.03416863 -0.17444961 -0.017068936 0.14380118
-0.0026582247 -0.09823784 0.19135518 -0.23820907 -0.07497957 -0.2262633 0.10250415 -0.16804168
0.23235759 0.045329668 -0.098506585 0.10201325 -0.09284974 -0.14998515 0.19867514 -0.10991327
-0.07095517 0.0652466 0.12031453 0.18555897 0.031552345 -0.0950453 -0.1896342 -0.1859082
-0.109976955 0.09673161 0.012004903 -0.0595041 0.07929794 -0.11082864 0.26697358 0.09711121
-0.087235086 -0.16575685 0.062453885 -0.15740752 0.03265093 0.041238673 -0.1292676 -0.05366156
-0.0027744593 -0.070129916 -0.052785896 -0.11783182 0.025600191 0.12785394 0.09442219 -0.07074365
0.059952103 -0.26985785 0.0966804 0.042908914 0.16807246 0.054105554 0.2628559 0.03152243
0.10111824 -0.09382793 -0.14439343 0.09767163 -0.071290836 -0.10736813 0.040118657 0.038969092
0.22292814 -0.12547728 0.11541043 -0.18924367 0.016332056 -0.20140697 -0.009837383 -0.009160767
0.083089694 0.18504445 -0.11776658 0.10408824 -0.10300076 0.162533 0.27204704 -0.15334189
0.026118414 0.27247286 0.22573438 0.03425477 0.06509362 -0.05999688 -0.028158411 -0.0924189
-0.018799216 0.24070655 0.013719771 0.019353416 0.18510915 0.01604305 0.18765384 0.18030195
-0.096784666 -0.10454883 0.03593276 -0.2987761 -0.120666616 -0.103705116 -0.0188976 0.03160028
0.071482934 -0.20005469 -0.19688669 -0.1760973 -0.035399403 0.07111103 0.081929594 0.035022836
0.07254897 0.02143433 0.0076366654 0.1361912 0.023841005 0.0014782379 0.20141229 -0.09998348
0.13600822 -0.25543588 -0.082687125 0.18567313 0.011777822 -0.22133875 0.045986496 0.21608846
0.043998703 -0.26698795 0.22703898 -0.11261955 -0.03675819 -0.15338913 0.20018442 0.07554726

lstm.bias_ih_l0 f4 [256]
00000000: fa4e 51bd ecd0 163e 103a e1bc 7adc fc3d
00000010: 4d16 653e fe62 313e 290c 433e fb0a 113e
00000020: 5252 cd3d 12cb 383e 2791 563d becf 363e
00000030: 04e6 0b3e 2410 313e 9468 3d3d f2b9 053e
00000040: 784b 76bd 1226 35bd 8c59 aa3d 00f2 183d
00000050: bc6b 973d 3a29 073c af06 f63d c67b 8b3d
00000060: 5447 b4bc 5d49 d53d 2c13 d039 961c 9a3e
00000070: ffe5 7cbd 5161 1c3e 10e5 153d ce4c 46bd
00000080: 8b85 e53d 046b 3d3e 7005 a53d 0432 253e
00000090: 4c9f 6b3e 67fa 8f3c ba1a 573e 9b66 ef3d
000000a0: 0a52 26bd d072 e13d 0f69 8dbd 0370 103e
000000b0: 3f5f 843b f915 dbbc 3bbc 353e e6f7 6c3d
000000c0: 8085 4fbb ed89 183e 87f8 113e 0ba0 1fbd
000000d0: 0dca 433e 5dd4 323e a6c0 753e 044c 2a3d
000000e0: fbea 9f3c a034 573e 285f 2b3e 8c0e 8a3d
000000f0: 9303 133e 9e3b 38bc 19c2 54bd 80af 693d
00000100: 8b21 22be 5159 b73d 7ffb f8bb a44d 793e
00000110: dc70 79be 188b 983b 03b7 0ebe c0fe e03b
00000120: 2c72 3a3d a3a6 813e bedc d73d 165f 4f3e
00000130: 8c4a 273c 3224 6cbe 0db5 22bd b951 fc3d
00000140: 24be 513d c3e7 263e 9bd7 1fbe 974a 563d
00000150: f3e1 a93d a4bb ab3d ba08 9b3d 58a7 ce3d
00000160: 7167 0a3d 3abe 84be 8004 0fbd 6bef 83bd
00000170: 8d11 f2bb 0222 09be 3463 ce3d 0e7b ce3d
00000180: b214 a2bc 8455 7fbe 41b8 fe3d 82cc 1abe
00000190: ea5f ab3c 9526 073e 1509 99be 02b8 3dbe
000001a0: 3ac6 05be e123 363e 0da5 b7bd 497a 9ebd
000001b0: e47d c63d eeb4 a53d ad85 ca3c be03 cbbd
000001c0: 7f9f 19be 4328 2bbc ad21 0d3d a538 f23d
000001d0: c977 0c3e bb12 863e 9015 833a e6e5 ec3d
000001e0: 1012 6a3e 3bf0 a13d 491f 413d 6ad9 dc3d
000001f0: 6f9f 08be fe5b 193e 88b0 c03c a4d1 d7bd
00000200: e041 20bd c808 59bc 94c4 ecbd 7c56 143e
00000210: 0422 bd3c b622 1e3d 64b5 f93c 99a2 02bd
00000220: 3415 2cbe 7a26 313e 91c8 b43d aa42 643d
00000230: dbdb a43d a8cf 9abd 330b f73d 5a6e 1dbc
00000240: 16e9 e5bd 9c84 133e dab1 aa3d 1cfb bf3d
00000250: 5622 4b3e debc 3e3c c6f7 2d3e 86b9 3ebd
00000260: b496 20be 3645 8fbd e17a 423e c638 8b3d
00000270: 5ebc ed3c 322f 69bd 4ff9 f9bc cf58 9f3c
00000280: b303 a83d de1c ca3d 265d 29be bde0 2abd
00000290: 3317 8bbc 1925 1c3d 76a8 86bd 99cb cbbd
000002a0: c8c8 4e3d 4d85 e93d 3bdd af3d c3a6 3dbe
000002b0: f441 1e3e 38d7 613d b01b da3d ea2b 22be
000002c0: fa28 88bd c782 6bbb 14d3 14be 6d56 f13d
000002d0: 5a36 a6bd b16a 623c d3e0 a13d f4f3 1f3e
000002e0: db1f a03d d892 cfbc 2560 9b3d f6d6 263d
000002f0: 6d39 043e 579e e1bd e25e ccbd 651b 5f3d
00000300: d1d5 c43c 52f2 2fbb ad3a e33d 0c33 77bd
00000310: 1e80 663e 48c9 0b3e 02db 64bc 6884 753e
00000320: f327 a23c 7f4e 2f3d 3130 453d 5528 b7bc
00000330: f3dc 483c 598e 543d ce6d 1f3e a714 02bd
00000340: 4055 023e 5dad 2b3d 25ac 223e 5c92 5abc
00000350: 106a 943d edef d03d 1eb4 383e efb9 80bd
00000360: 104d 01bd 3050 9abc bccc 173d 3f24 a43e
00000370: 30c7 f83d 89aa 8c3e a63f 873d 0da8 fd3d
00000380: 7f51 983b c10a e33d 22a1 3a3e d95c 38bc
00000390: a15e bb3d 43c1 363d 8afa 7e3e 3a56 7e3d
000003a0: 8d80 f4bc 9eaa 1a3d c3d0 963d 0ae5 173e
000003b0: 1d39 743e 87a5 073c 0db9 893e 39b0 003e
000003c0: bad0 833d 6a83 9a3c 1b3a 223e f391 a33d
000003d0: 4c4e b43d 2033 c43b 5092 803e a2c2 ba3d
000003e0: 0154 d338 d8ed 6d3c 20d0 403d a46f 0bbd
000003f0: a2a3 883e fd56 283d 2bd6 933d b676 1f3e
-0.05110071 0.14728135 -0.027493507 0.1234674 0.22371788 0.17322919 0.19047607 0.14164345
0.10025467 0.18046215 0.05238452 0.17852685 0.13661963 0.17291313 0.04624231 0.13059214
-0.060130566 -0.04422576 0.08317861 0.037340164 0.073935956 0.008249575 0.120129935 0.06810717
-0.022006668 0.104143836 0.00039687136 0.30099934 -0.06174278 0.15271498 0.036595404 -0.04841309
0.11207112 0.18497854 0.08057678 0.1613236 0.23009986 0.017575456 0.21006289 0.11689492
-0.040605582 0.11008227 -0.06904804 0.14105229 0.0040396745 -0.026743876 0.17747585 0.057853602
-0.0031665266 0.14896365 0.14254962 -0.03897099 0.19120045 0.17463823 0.23999271 0.0415764
0.019521227 0.21016169 0.16735518 0.06741056 0.14356832 -0.011244683 -0.05194292 0.057052135
-0.15833108 0.08952583 -0.00759834 0.24346024 -0.24359459 0.004655253 -0.13937001 0.006866306
0.04551904 0.25322446 0.1054015 0.20251116 0.010210644 -0.23060682 -0.039723445 0.12320275
0.051206723 0.16299348 -0.1560959 0.05231723 0.082950495 0.08385399 0.07570024 0.10090512
0.033790056 -0.2592638 -0.0349164 -0.0644215 -0.007387346 -0.13391879 0.10077515 0.100820646
-0.019785259 -0.24934965 0.124374874 -0.15117076 0.020919759 0.13198312 -0.29889742 -0.18527225
-0.13063899 0.17787124 -0.08967028 -0.07738168 0.096919805 0.0809115 0.024721945 -0.09912823
-0.15002249 -0.010446611 0.034455944 0.1182721 0.1371757 0.26186165 0.0010000933 0.11567287
0.22858453 0.079071485 0.047148976 0.10783656 -0.13342069 0.14976498 0.023521677 -0.10538033
-0.039125323 -0.0132467225 -0.11560932 0.14486116 0.023087509 0.03860732 0.030482002 -0.031893346
-0.16804963 0.17299834 0.088273175 0.05572764 0.080497466 -0.075591385 0.12062683 -0.009608829
-0.11226098 0.14406055 0.08334704 0.09374067 0.19837317 0.011641709 0.1698905 -0.046563648
-0.15682489 -0.06995623 0.18992187 0.06797938 0.029020485 -0.056929775 -0.030514387 0.019451527
0.082038306 0.09868787 -0.1653944 -0.041718233 -0.016978836 0.038121317 -0.065751 -0.099509425
0.05048445 0.11402378 0.08587118 -0.18520646 0.15454847 0.05513689 0.10649812 -0.15837064
-0.06648441 -0.0035936104 -0.14533645 0.117840625 -0.081158355 0.0138193825 0.0790421 0.15620404
0.07818576 -0.025338575 0.075866975 0.040732346 0.12912531 -0.11016529 -0.09979035 0.054469485
0.024027737 -0.0026847315 0.11095176 -0.060351416 0.2250981 0.13651001 -0.013968231 0.2397629
0.01979444 0.04279947 0.048141662 -0.022358099 0.01225971 0.051893566 0.15569231 -0.031757977
0.12727833 0.04191338 0.1588598 -0.013340559 0.07246792 0.10202012 0.18037459 -0.06285464
-0.031567633 -0.018837065 0.037060484 0.32058904 0.12147367 0.27473858 0.06603937 0.12385569
0.004648387 0.110860355 0.1822553 -0.011252605 0.091489084 0.044617902 0.2490026 0.06209395
-0.029846454 0.03776037 0.07364037 0.14833465 0.23849912 0.008279211 0.26898995 0.12567224
0.06436296 0.018861491 0.15842478 0.07986822 0.088039964 0.00598754 0.25111628 0.091191545
0.00010076911 0.014522038 0.047073483 -0.034042016 0.26687342 0.041098583 0.07218584 0.15572628

lstm.bias_hh_l0 f4 [256]
00000000: acb3 473d 5954 cd3d e9e7 793d 84d8 013d
00000010: 68e0 293e 0e71 343e 12b5 923d d341 443e
00000020: db08 303e d88f 2a3d 5baf 3b3d a821 b73d
00000030: 2adb f73c b534 5f3e 6347 d93c b0c7 02bd
00000040: 373b a0bd dc0e 293d 3a9c 6a3e 4258 ffbd
00000050: 582b fbbd a5f2 ce3d a790 cc3d 127c ee3d
00000060: f09f f2bd a966 73bc 1193 3a3e 2556 a33e
00000070: 30ca 12bd 4a9c bc3d a022 273e 61f6 903d
00000080: 228c c63d 9691 893e 05fa 18bd cac6 cbbc
00000090: 5724 313e e5b0 b53d a9be 0f3d 5b24 443e
000000a0: 0e8e 913d 9212 03bc 21d6 ae3d 1949 6f3e
000000b0: c090 c43c 169b 0e3d dcc9 a33d 757e eb3d
000000c0: b488 f13d 90f3 ef3d a693 8d3c 69ff 7bbd
000000d0: feaa f83d ecc4 3a3e f064 523e e401 123e
000000e0: 2f23 c53a 2164 783d 8d80 de3d 1d98 9e3d
000000f0: 20d3 2f3e c6b1 d03d bb8d 8f3d 29d0 5b3d
00000100: a1db 103c 2b97 6a3e bd15 1a3e df35 343e
00000110: 7399 2fbe 7c17 33bd 6adf 89bd 4097 01be
00000120: 2a06 093e cab4 3f3e 4c7f 5b3e db88 673d
00000130: 1e41 843c f51d 0ebe acd0 853c 97c5 8c3d
00000140: bd36 973d fc22 e13c b002 96bd 3cb2 38be
00000150: f810 713e dc4e ab3d 30d9 203e 7b10 803d
00000160: eb78 e33d 53bd 34bd aae4 293e 5fad 21be
00000170: 4dd0 b03d c76f c5bd c0f0 ac3d e5b8 7e3d
00000180: 62b6 ae3c 7757 05be bae6 183d 3ef8 723d
00000190: dc8b c13c 717e 003e 67fc 86bd ea89 3cbe
000001a0: baf4 05be 4657 4f3d 9466 c0bc 685a f9bd
000001b0: 0956 45bd 6a8e 393e e011 95bd f9ad 053d
000001c0: 447b e6bd 3ce3 7dbd f7f9 da3d 9c17 ae3a
000001d0: 076e c93c e01d 6e3e 19ae 003d da10 3f3d
000001e0: 8456 473e 496e f9bd c699 033e 34a9 c23d
000001f0: 295f 70bd e53e 0c3e b043 54be 4ef8 83bd
00000200: 050c db3c f5de e53d 395d 20bb 3e03 313e
00000210: af71 0cbe decb 9ebd 1c5a da3b 8ea1 84bd
00000220: 0382 0dbd d62d 01bd 6ab1 c03d 9416 783d
00000230: 39f4 2bbc fac3 ddbd f4d9 1ebd d6da 06be
00000240: 96aa b7bd 030e bc3b 2b16 07be 5743 71bc
00000250: c232 25bb 46e5 00be 79f4 d5bc 4d3c 9b3d
00000260: fe47 2f3d 3442 e43c 6123 613d 3c75 babd
00000270: e386 17be c621 0a3e f4bb 17be 471f 37be
00000280: 3d98 743d a1a6 fcbd 6e32 2dbe 4ad7 5fbd
00000290: cd7a e43c a4ea 043e 5870 bbbb b992 313c
000002a0: b64d ba3c 79dd 8fbd a71e 003c 7831 243d
000002b0: e44a 5bbc fecc 213d fdfe 323d f465 cdbc
000002c0: 001b 44bb eb12 04be dafc 01be c1d7 8a3d
000002d0: 7bd4 24bc c5eb 26be f472 7e3c d452 92bc
000002e0: 2d93 d23c 30bb e6bd 0287 933c ca35 d0bd
000002f0: 2727 0dbd 6595 15bc b107 373d 0a53 02be
00000300: f483 c03d 5937 3c3e a69b 0b3e 0140 1d3b
00000310: bb47 453e 729a e03d 5524 db3d 8961 a13d
00000320: 36d8 603e cbc9 0a3e 5a89 633d 954b aebc
00000330: 107a 8d3a 5980 663d 926f 3f3e 8200 063e
00000340: 7a22 90bd a2fe 353c dfed 203e 9a6c c53d
00000350: 02f4 36bc c4f2 653d 96ac 033d 79db 903d
00000360: e028 1bbd 73d8 f63d 302f ae3d 9a89 123e
00000370: 9e87 47bd 7b7c 013e 1b06 933c 1d96 953d
00000380: 6174 7abd 802b db3c 942c 1b3e 40ef 5a3c
00000390: d950 633e a2cb 813d a959 473d 9b2b 8a3e
000003a0: 4cf6 203e 9ec2 76bd f813 0fbe 6431 643d
000003b0: 22eb 053e 976e 463e 25a1 753e 3fe1 f0bc
000003c0: 1e93 0cbd bce2 693e 310d cdbc 679a 163e
000003d0: 6598 4a3e ed02 003e bfd2 6b3e 529a b13d
000003e0: f475 bf3d f600 553e d272 4e3e 2703 123d
000003f0: 66f1 963e 3b28 89bc 07d2 ccbd 52ee 7e3e
0.048755333 0.10025854 0.061012182 0.031700626 0.1658951 0.17621252 0.07163443 0.19165735
0.17190878 0.041641086 0.04582153 0.08941966 0.030255873 0.2179745 0.026523298 -0.031928718
-0.07823794 0.041273937 0.22911158 -0.12468006 -0.122641265 0.101048745 0.09988528 0.11644758
-0.11846912 -0.014856019 0.18220164 0.3190166 -0.035837352 0.09209497 0.16321802 0.07078243
0.09694697 0.26868886 -0.037347812 -0.024875063 0.17299019 0.088716306 0.035093937 0.19154494
0.07107173 -0.008000033 0.085369356 0.23367728 0.023994803 0.03481587 0.07997486 0.11498729
0.11793652 0.11716378 0.017282318 -0.061522875 0.12141989 0.18239182 0.20546317 0.14258534
0.0015040393 0.060642365 0.10864363 0.07743857 0.17170382 0.101901576 0.07009455 0.053665314
0.008841426 0.22909229 0.15047355 0.17598675 -0.1714838 -0.04372357 -0.06732066 -0.12655354
0.13381258 0.1872131 0.21435279 0.056527 0.016144332 -0.13878615 0.016334854 0.06873625
0.073834874 0.027482502 -0.07324731 -0.18036741 0.2354163 0.083646506 0.1570785 0.062531434
0.11107048 -0.044125866 0.16591135 -0.15788792 0.0863348 -0.096404605 0.08444357 0.062188048
0.021327201 -0.13021646 0.037329413 0.059318773 0.02362626 0.12548234 -0.06591111 -0.18411985
-0.13081637 0.05062034 -0.023486413 -0.12175447 -0.048177753 0.18120733 -0.072788 0.032636616
-0.1125398 -0.061984286 0.10692208 0.0013282183 0.024588598 0.23253584 0.031416032 0.04664693
0.19466597 -0.12179238 0.12851629 0.09504929 -0.0586845 0.13695867 -0.20728946 -0.06443845
0.02673913 0.11224166 -0.0024469628 0.17286393 -0.13715242 -0.07753728 0.006663574 -0.064761266
-0.034547817 -0.031537853 0.09408839 0.060568407 -0.010495239 -0.10828395 -0.038782075 -0.13169417
-0.089680836 0.005738975 -0.1319205 -0.014725528 -0.0025207256 -0.12587461 -0.02611755 0.07579861
0.042793266 0.0278636 0.05496538 -0.09104392 -0.14797549 0.13489446 -0.14817792 -0.17883025
0.0597155 -0.123364694 -0.16913769 -0.054648675 0.027890587 0.12980133 -0.0057201795 0.010838204
0.022742134 -0.070246644 0.007819808 0.04008624 -0.013384555 0.039502136 0.043700207 -0.02507303
-0.002992332 -0.12897842 -0.12694111 0.06779433 -0.010060425 -0.16300876 0.015530337 -0.017861761
0.025704945 -0.11266172 0.018008713 -0.101665094 -0.034461167 -0.009129857 0.04468507 -0.1272699
0.09400168 0.18380488 0.13633594 0.0023994448 0.19265644 0.10966958 0.10700289 0.078799315
0.21957478 0.1355354 0.05555091 -0.021276275 0.0010793824 0.056274746 0.18694904 0.13086131
-0.07037826 0.0111080725 0.1571574 0.09639855 -0.011166574 0.056139722 0.032147013 0.07073111
-0.03788078 0.12053003 0.08505094 0.14310303 -0.04871332 0.12645142 0.017947247 0.073040225
-0.061146144 0.02675414 0.15153724 0.013362706 0.2219881 0.06337668 0.04866949 0.26986393
0.15718955 -0.060244195 -0.13972461 0.055711165 0.13077977 0.19378124 0.23987253 -0.02940428
-0.03431999 0.22840399 -0.025030704 0.14707337 0.19784696 0.12501116 0.23029612 0.086720124
0.0934867 0.20801148 0.20160988 0.035647538 0.29481047 -0.016742816 -0.10000997 0.248956

fc.weight f4 [1, 64]
00000000: d0fe 21be f837 5d3d 6f34 11be 369d f03d
00000010: 01df 893e 2007 36be 4147 3fbe 6dc5 133e
00000020: 2748 54be 0941 e33d fa55 453e cf16 263e
00000030: 9d83 5bbe e6f3 503e 6c96 40be 2ed2 4dbe
00000040: 8e76 e4bd be34 403d 2e01 64be 6591 5f3d
00000050: b03a 043d 4ced e7bd 0bd3 a73b 23ef 083e
00000060: 13cb 623d 9bfa 2e3e 7717 813e 6f4c 723e
00000070: 6e06 46be f1a0 783e da6d 39be c91f b0bd
00000080: 4e46 eb3d 3628 e13d 25f0 29be 10d0 d03d
00000090: faf0 58be b12b cbbc d607 3fbe 57ac 88be
000000a0: 6c54 16be 08bd b5bd 945b ae3d 6c3a 6ebe
000000b0: 44ff 863e d9cb 533e b577 0dbe 4d4c 87be
000000c0: f39c 6ebd 0c7c f63d f56a e5bd 9977 4a3e
000000d0: 6d4f 31be ab31 a43d e312 353e 5a8f 5e3c
000000e0: 0766 473d 644a c13d 69aa a8bd 95da 15bd
000000f0: d3f1 833e 14ba c8bd d67e 8ebd d718 88be
-0.1581986 0.054008454 -0.14180158 0.117487356 0.2692795 -0.17776155 -0.18679525 0.1443078
-0.20730649 0.11096389 0.19271079 0.16219638 -0.21436925 0.2040554 -0.18807381 -0.20099708
-0.11155425 0.0469253 -0.22266075 0.05458202 0.03228253 -0.11324558 0.005121594 0.13372473
0.055369448 0.17087786 0.25213215 0.2366197 -0.1933839 0.24280144 -0.18108311 -0.085998125
0.11488019 0.10993998 -0.16595514 0.10195935 -0.21185675 -0.024801107 -0.18655333 -0.26693985
-0.14680642 -0.088739455 0.08513561 -0.23264474 0.26366627 0.2068323 -0.13815196 -0.264254
-0.058255147 0.12035379 -0.11202041 0.19772185 -0.17315455 0.08017286 0.17682986 0.013583982
0.048681285 0.09438017 -0.08235628 -0.03658541 0.25770435 -0.098011166 -0.06957786 -0.2658145
